emnist_vgg_model.pt (torch, 72438 bytes, 10 tensors)

weight f4 [10, 1, 3, 3]
0.31091124 -0.34906232 -0.21970524 -0.10702951 -0.20175944 0.2674348 0.024664963 -0.27492142
-0.020482391 -0.00791553 -0.39799425 -0.4246294 0.37034515 -0.15015662 0.023508592 -0.67293346
-0.18667388 0.5916174 0.1640325 -0.089305595 0.6975519 -0.15818048 -0.86818 0.2903723
-0.15584713 -0.23231968 0.6734298 0.34936792 -0.38082832 -0.16646552 0.20994309 -0.20880377
-0.27773863 0.18630913 -0.2052902 -0.22740786 -0.58329034 -0.35156542 0.21166329 -0.81495774
-0.7423892 0.29293084 -0.64639974 -0.17168276 0.26436976 0.04336273 -0.38015687 -0.3340714
-0.59162486 0.20883434 0.26120934 0.3557803 -0.08695063 0.46258518 -0.33664882 -0.41478485
-0.752201 -0.030120896 0.047870383 -0.42075288 -0.014787117 -0.30974293 -0.94954085 0.86696184
-0.14158334 -0.4560159 -0.21325488 -0.35267857 -0.65119797 0.33628073 0.13207729 0.0691265
-0.3621972 -0.21888143 -0.09348228 0.13162214 0.38022864 -0.09572359 0.2638368 0.70163286
-0.14888372 0.041940268 -0.054450806 -0.13292804 -0.24416932 0.34660462 -0.3086666 0.011704063
0.44017693 0.47069377
00000000: c22f 9f3e 4cb8 b2be 69fa 60be 4a32 dbbd
00000010: 079a 4ebe 37ed 883e 2d0e ca3c 80c2 8cbe
00000020: b0ca a7bc 24b0 01bc e7c5 cbbe 0669 d9be
00000030: e19d bd3e a8c2 19be 1795 c03c 5e45 2cbf
00000040: 7027 3fbe 3d74 173f 23f8 273e dae5 b6bd
00000050: c392 323f 10fa 21be 0b41 5ebf aeab 943e
00000060: 6496 1fbe 36e5 6dbe e565 2c3f 5ae0 b23e
00000070: eefb c2be f075 2abe 52fb 563e a8d0 55be
00000080: c233 8ebe d2c7 3e3e 9837 52be 9bdd 68be
00000090: 8452 15bf 6200 b4be 43be 583e 12a1 50bf
000000a0: 380d 3ebf 08fb 953e 747a 25bf 9bcd 2fbe
000000b0: 795b 873e 1e9d 313d eca3 c2be 680b abbe
000000c0: ba74 17bf abd8 553e 3bbd 853e d628 b63e
000000d0: 2c13 b2bd f7d7 ec3e 3c5d acbe ae5e d4be
000000e0: 3f90 40bf 19c0 f6bc bc13 443d ec6c d7be
000000f0: aa45 72bc a096 9ebe 1c15 73bf 36f1 5d3f
00000100: 39fb 10be eb7a e9be 7d5f 5abe 4992 b4be
00000110: e9b4 26bf fd2c ac3e 453f 073e 3292 8d3d
00000120: e971 b9be 7422 60be a373 bfbd f4c7 063e
00000130: 54ad c23e bb0a c4bd 9e15 873e 369e 333f
00000140: f974 18be 8fc9 2b3d cf07 5fbd 4a1e 08be
00000150: 8607 7abe 2976 b13e 8c09 9ebe 66c2 3f3c
00000160: df5e e13e c6fe f03e

bias f4 [10]
-0.028711742 -0.010249892 -0.13007462 -0.20450982 0.3771506 -0.24980353 0.28062662 -0.123993374
-0.22133227 -0.12570502
00000000: e334 ebbc 2aef 27bc 4832 05be 066b 51be
00000010: e219 c13e 7fcc 7fbe 4bae 8f3e 3df0 fdbd
00000020: eda4 62be d1b8 00be

weight f4 [10, 10, 3, 3]
-0.114111505 -0.0122903325 -0.0019535085 0.064779714 0.030502804 0.039699405 0.08782878 -0.06635627
0.029341709 -0.17389287 -0.17491241 0.23915231 -0.059900943 -0.07512979 0.17608526 -0.010112003
0.22382957 0.36725375 -0.2799802 0.36446992 0.21756284 -0.16627368 0.24195741 0.0042238776
0.015534556 -0.26833433 0.07820811 0.02503415 0.061372083 0.056946944 -0.045220166 0.015592371
-0.034999486 -0.13205124 -0.006744697 0.05571029 0.16063733 -0.45586386 -0.07994274 -0.07247943
-0.11258421 0.44640574 -0.053429496 0.319353 0.23533691 -0.06788537 -0.04469581 0.19590132
-0.17430997 -0.2367318 -0.11190105 0.024729982 -0.013651749 -0.06828645 0.22044335 -0.18421128
-0.16176742 0.50467086 0.007034002 -0.46330968 0.41380265 -0.2863491 -0.5197336 -0.035382282
-0.36206686 -0.144514 0.14088303 -0.2938122 -0.43027374 0.13719459 -0.2608336 -0.3092568
-0.07904182 -0.36014244 0.28987193 -0.5545549 -0.2994169 0.26035684 -0.53234607 0.2549557
0.33589014 -0.2046601 -0.1924773 0.24736606 -0.52679527 0.2891502 0.30183792 -0.25904602
0.14229937 0.18162245 0.09721966 0.045695778 -0.02078143 0.0633125 0.036339123 0.068607084
0.022919916 -0.10131334 0.06329297 -0.009655156 0.13300702 0.03565536 -0.08245596 -0.036883116
0.096980914 -0.066564515 -0.021910723 -0.012758185 -0.061791413 -0.15626855 -0.11818361 -0.017349146
-0.09026746 -0.17376742 0.37190613 0.16922541 -0.08788524 0.0017827315 -0.015085267 0.0766689
0.027239555 -0.08586104 -0.087838285 -0.040093284 0.03284788 -0.054800574 -0.20091562 -0.025741551
0.06307879 -0.07216006 -0.05762651 -0.08302844 -0.15144818 -0.04371961 -0.037316687 -0.05006727
-0.020486005 0.055177778 -0.08981921 0.030106377 0.06144485 0.03322102 0.08765392 0.074500985
0.058038678 0.07345986 -0.010338209 0.0651186 0.09097164 0.07021215 0.016529385 0.055972226
-0.046810903 -0.011880437 -0.034074247 0.08126977 -0.050895393 -0.12963063 0.11524087 -0.06442514
-0.19906415 0.123059876 0.23090442 0.15255785 -0.026716465 -0.092545226 0.09053754 0.20567293
-0.28989467 -0.18539868 0.18583576 0.051559187 0.1458897 -0.008917077 0.059594035 0.20443419
0.06937682 -0.0943221 0.13318406 0.020904815 -0.10414075 0.05477952 -0.08203004 -0.055831205
-0.037422266 -0.052782923 -0.00015996641 0.076882355 -0.06684774 0.013401627 0.077713564 -0.027896497
-0.029299472 0.0076134256 -0.06515441 0.093114026 -0.019724907 0.0019655742 -0.115030415 -0.09562459
-0.047730044 -0.077272974 -0.13618197 -0.0029282835 -0.10142021 -0.13912702 -0.04852105 -0.07296275
-0.01743966 -0.09465007 -0.10173207 0.06973885 -0.037356813 0.03142245 0.00086234335 -0.019614264
0.081138015 0.04466488 -0.26063037 0.061283212 -0.02316106 -0.27026263 -0.04336152 0.12579954
-0.21795374 0.0584471 0.03604677 -0.07770306 -0.07570555 0.009622647 0.06746103 0.026729634
0.073780656 0.0642401 0.11436625 0.08153964 -0.17058577 0.093663305 -0.0043895333 -0.12794797
0.09955112 0.05931553 -0.17181337 -0.106854126 0.07977121 -0.06298957 0.016226523 -0.040474303
-0.09759333 -0.016442137 0.04833366 -0.003579122 -0.060151476 -0.09107105 -0.034490827 -0.008389352
00000000: 4bb3 e9bd 645d 49bc 6f06 00bb 3aab 843d
00000010: 04e1 f93c d89b 223d 93df b33d cce5 87bd
00000020: 065e f03c f910 32be 3d1c 33be 58e4 743e
00000030: b15a 75bd a6dd 99bd b24f 343e d1ac 25bc
00000040: 9433 653e af08 bc3e 9159 8fbe cd9b ba3e
00000050: cbc8 5e3e a643 2abe afc3 773e 7468 8a3b
00000060: a684 7e3c 1e63 89be 932b a03d 6b14 cd3c
00000070: 4b61 7b3d 3341 693d c838 39bd 2577 7f3c
00000080: 9f5b 0fbd 7138 07be 9f02 ddbb 7930 643d
00000090: 1d7e 243e fd66 e9be 05b9 a3bd 1870 94bd
000000a0: 8d92 e6bd 4b8f e43e e3d8 5abd 3d82 a33e
000000b0: 29fc 703e 7c07 8bbd f412 37bd 5b9a 483e
000000c0: 507e 32be d269 72be 612c e5bd 8896 ca3c
000000d0: 96ab 5fbc c4d9 8bbd e7bb 613e e2a1 3cbe
000000e0: 5ca6 25be 1c32 013f 7c7d e63b ed36 edbe
000000f0: f1dd d33e 599c 92be 430d 05bf 03ed 10bd
00000100: d460 b9be 7afb 13be a443 103e 8d6e 96be
00000110: d74c dcbe bd7c 0c3e fb8b 85be e856 9ebe
00000120: ade0 a1bd 9764 b8be 186a 943e 4ff7 0dbf
00000130: 2c4d 99be 7e4d 853e d547 08bf 8e89 823e
00000140: cbf9 ab3e 6b92 51be c518 45be 874d 7d3e
00000150: 0edc 06bf 7f0b 943e 808a 9a3e aea1 84be
00000160: edb6 113e 3cfb 393e 1a1b c73d 7f2b 3b3d
00000170: d13d aabc fca9 813d 55d8 143d df81 8c3d
00000180: 8cc2 bb3c 5e7d cfbd bf9f 813d a930 1ebc
00000190: fe32 083e 5b0b 123d acde a8bd c012 17bd
000001a0: ee9d c63d fa52 88bd 1e7e b3bc b507 51bc
000001b0: fe18 7dbd dd04 20be 400a f2bd cc1f 8ebc
000001c0: 25de b8bd 16f0 31be 7b6a be3e 6d49 2d3e
000001d0: 2dfd b3bd 8baa e93a 3228 77bc 9604 9d3d
000001e0: 7d25 df3c ead7 afbd 8fe4 b3bd db38 24bd
000001f0: 808b 063d 9176 60bd d3bc 4dbe f2df d2bc
00000200: 742f 813d a7c8 93bd c609 6cbd d10a aabd
00000210: 3b15 1bbe 5513 33bd 62d9 18bd 5613 4dbd
00000220: 44d2 a7bc 1802 623d 22f3 b7bd a6a1 f63c
00000230: 98ad 7b3d c412 083d e683 b33d f993 983d
00000240: f7b9 6d3d 2072 963d 9761 29bc e75c 853d
00000250: 574f ba3d 63cb 8f3d a268 873c 2243 653d
00000260: cabc 3fbd 2aa6 42bc 7091 0bbd c470 a63d
00000270: b077 50bd e4bd 04be 6803 ec3d 54f1 83bd
00000280: 79d7 4bbe d106 fc3d 3572 6c3e 2038 1c3e
00000290: 7ddc dabc 5a88 bdbd bf6b b93d ed9b 523e
000002a0: 136d 94be 27d9 3dbe bb4b 3e3e ba2f 533d
000002b0: 1c64 153e ef18 12bc e018 743d 3257 513e
000002c0: 6f15 8e3d f22b c1bd 6761 083e 9340 ab3c
000002d0: bf47 d5bd 7d60 603d 5eff a7bd 43af 64bd
000002e0: 1748 19bd e832 58bd a8bc 27b9 7f74 9d3d
000002f0: 78e7 88bd 7f92 5b3c 4a28 9f3d 3287 e4bc
00000300: 7205 f0bc 0b7a f93b ad6f 85bd 91b2 be3d
00000310: 2196 a1bc ddd0 003b 1195 ebbd d3d6 c3bd
00000320: 9480 43bd 4b41 9ebd 4973 0bbe 72e8 3fbb
00000330: 66b5 cfbd 5077 0ebe 02be 46bd 7f6d 95bd
00000340: 9edd 8ebc e5d7 c1bd e758 d0bd 3ed3 8e3d
00000350: 7503 19bd d4b4 003d e20e 623a 18ae a0bc
00000360: b02b a63d 85f2 363d 5871 85be 1b04 7b3d
00000370: 43bc bdbc dd5f 8abe d99b 31bd 98d1 003e
00000380: 442f 5fbe 3a66 6f3d c7a5 133d c822 9fbd
00000390: 830b 9bbd 4fa8 1d3c 0229 8a3d 1bf8 da3c
000003a0: 501a 973d 5090 833d da38 ea3d 41fe a63d
000003b0: 09ae 2ebe 8cd2 bf3d 13d6 8fbb cb04 03be
000003c0: 75e1 cb3d d7f4 723d d8ef 2fbe 56d6 dabd
000003d0: 175f a33d ad00 81bd 7ced 843c 62c8 25bd
000003e0: 03df c7bd a9b1 86bc 84f9 453d b48f 6abb
000003f0: 6561 76bd 7583 babd 4146 0dbd 7e73 09bc

bias f4 [10]
0.039336786 -0.26862398 0.050119974 -0.15422486 -0.06570995 0.46496302 -0.04048001 0.09224426
-0.060618937 0.24831541
00000000: 9c1f 213d 1589 89be 9a4a 4d3d 1fed 1dbe
00000010: f092 86bd a20f ee3e 5ece 25bd 8fea bc3d
00000020: 904b 78bd 6546 7e3e

weight f4 [10, 10, 3, 3]
0.37285915 -0.1765463 -0.5580102 -0.0023127326 -0.029191157 -0.13275652 0.08692645 0.3387672
-0.10277618 -0.08856248 -0.07803046 0.15446399 0.1065954 -0.09204173 -0.0038056113 0.054081835
-0.112736315 -0.15956579 -0.07871829 -0.09037161 -0.11031962 -0.041209307 -0.033952247 -0.010752186
-0.090996504 0.025647009 -0.05502056 -0.06817036 0.06886174 0.35724697 0.07121943 0.056973275
0.041207165 0.10742127 -0.030895926 -0.31235042 0.015263276 0.051594708 0.1858301 0.21975869
-0.15784958 0.1090855 -0.035042807 -0.0023471308 -0.116189376 -0.09544815 0.16607806 0.5477979
-0.11985783 -0.13151734 0.20319487 -0.4104007 -0.40345237 0.028855484 -0.012578123 -0.030557612
0.036566783 -0.13294315 -0.24136837 -0.16407527 -0.27262598 -0.32684672 -0.048329968 -0.13587926
-0.3860143 -0.33364743 -0.10971668 0.061174113 0.07456855 -0.22286747 -0.33058453 -0.10419534
-0.11239214 -0.454139 -0.019846356 -0.0381003 -0.41901037 0.021546137 -0.07946932 -0.2780971
0.30877078 0.02000968 0.2966562 0.58850646 -0.21472043 -0.029904598 -0.057323165 -0.27450436
0.016205302 0.15595753 -0.08702211 -0.10673365 -0.025242079 -0.32834688 -0.1279353 0.28154367
-0.20972216 -0.17062642 -0.20757 -0.13002877 -0.023332551 0.066057116 -0.29702038 -0.19068216
-0.021613719 0.048346683 0.06274649 -0.0042465497 -0.05637525 -0.07429621 0.05466763 0.034803834
-0.041469526 -0.10705468 0.025034847 -0.16303843 -0.092384666 0.12637472 -0.16079368 0.009702568
0.067719564 0.15198979 -0.10731405 0.40210435 -0.27358386 -0.206392 -0.27114233 -0.21637313
0.14114645 -0.4453163 -0.2675756 -0.27455178 -0.5257958 -0.31883582 -0.0071343062 0.49398383
0.13827601 0.21016797 0.03311782 0.024201442 -0.50597066 -0.3531345 -0.37377238 -0.09422005
0.0330683 -0.15348929 -0.019917157 -0.33778912 -0.16143158 -0.088828824 -0.0035324916 0.083144434
0.16400838 0.21761253 0.36421075 -0.44000328 0.25796762 0.14230241 -0.3143025 -0.1990378
-0.5932313 -0.3046626 -0.48564744 -0.11088664 -0.016783105 -0.10272611 0.24996606 -0.032544672
0.3476825 0.16084906 0.054148518 0.48147476 0.15884106 0.24195792 0.15284123 -0.16162455
-0.17402497 -0.6227532 -0.045136936 -0.43034077 0.045975473 0.7775237 0.7287237 -0.21138741
-0.07200005 -0.33270544 -0.081458025 -0.18172091 -0.05867714 -0.010078022 -0.060324527 -0.14777775
0.0040220264 -0.0060049286 -0.08382096 -0.07055121 -0.06862367 -0.020052504 0.011784482 0.005024121
-0.0030069675 -0.039289042 0.009521489 0.06406999 0.053870894 0.041285556 -0.09894843 0.31313634
-0.110576324 -0.583124 0.17924017 -0.25512207 -0.093070924 0.15629642 -0.116817996 0.21553528
-0.30858532 -0.048255876 0.5030216 0.052877273 0.17069176 -0.12320148 0.24651538 -0.171706
0.058390133 -0.4780641 -0.34058633 0.38471082 -0.28937078 0.34872952 0.37619647 -0.05135247
0.17390239 -0.1925678 -0.7168233 -0.5123459 0.058951873 -0.24493475 -0.20621957 0.22019698
0.091275 -0.39612544 0.14231308 -0.31671625 -0.23200896 0.076768115 -0.41466027 0.16018775
0.40564495 -0.2043706 0.08620338 -0.2527075 0.22849204 -0.09370575 -0.49331617 0.5468871
00000000: 65e7 be3e 8ec8 34be c2d9 0ebf 3791 17bb
00000010: 4b22 efbc 53f1 07be 7f06 b23d e572 ad3e
00000020: 517c d2bd 3f60 b5bd 6fce 9fbd cf2b 1e3e
00000030: b04e da3d 6080 bcbd 9067 79bb ea84 5d3d
00000040: 4ce2 e6bd 3765 23be 0e37 a1bd c014 b9bd
00000050: 41ef e1bd 17cb 28bd 8311 0bbd f029 30bc
00000060: 605c babd ad19 d23c 3d5d 61bd e79c 8bbd
00000070: 6207 8d3d 13e9 b63e 7edb 913d cf5c 693d
00000080: d8c8 283d afff db3d 7419 fdbc 65ec 9fbe
00000090: d212 7a3c f954 533d 3f4a 3e3e 6c08 613e
000000a0: 52a3 21be 3868 df3d 0c89 0fbd 52d2 19bb
000000b0: b2f4 edbd 527a c3bd 5e10 2a3e 7c3c 0c3f
000000c0: 0678 f5bd 7bac 06be 5112 503e 0a20 d2be
000000d0: 4f91 cebe 5662 ec3c 7914 4ebc f553 fabc
000000e0: 0dc7 153d 4022 08be 4529 77be 5903 28be
000000f0: a295 8bbe 7458 a7be a5f5 45bd ef23 0bbe
00000100: aba3 c5be d6d3 aabe 24b3 e0bd b591 7a3d
00000110: 65b7 983d 5f37 64be 6042 a9be 5e64 d5bd
00000120: da2d e6bd e884 e8be d394 a2bc 0f0f 1cbd
00000130: 8788 d6be 8681 b03c d0c0 a2bd be62 8ebe
00000140: 3417 9e3e 57eb a33c 52e3 973e 5ca8 163f
00000150: acdf 5bbe 7dfa f4bc b2cb 6abd d68b 8cbe
00000160: fbc0 843c 55b3 1f3e a638 b2bd 2c97 dabd
00000170: 7ac8 cebc 151d a8be 7901 03be 7e26 903e
00000180: 68c1 56be b1b8 2ebe 3b8d 54be 4326 05be
00000190: e823 bfbc f448 873d 0e13 98be 2f42 43be
000001a0: 410f b1bc 2c07 463d 3b81 803d a426 8bbb
000001b0: bce9 66bd 9d28 98bd 2aeb 5f3d 778e 0e3d
000001c0: f3db 29bd 7c3f dbbd e115 cd3c 8cf3 26be
000001d0: 2c34 bdbd 6068 013e 19a7 24be 85f7 1e3c
000001e0: 8eb0 8a3d 36a3 1b3e 78c7 dbbd 9fe0 cd3e
000001f0: 2f13 8cbe 6d58 53be 2bd3 8abe eb90 5dbe
00000200: b288 103e 8000 e4be abff 88be 0d92 8cbe
00000210: 8e9a 06bf 733e a3be e6c6 e9bb 73eb fc3e
00000220: 3a98 0d3e 4636 573e 8da6 073d 1a42 c63c
00000230: 4b87 01bf 0cce b4be 185f bfbe 71f6 c0bd
00000240: a072 073d 4c2c 1dbe 4e29 a3bc b2f2 acbe
00000250: 524e 25be e3eb b5bd 6081 67bb a147 aa3d
00000260: d0f1 273e d2d5 5e3e d579 ba3e 1c48 e1be
00000270: 5514 843e b9b7 113e 42ec a0be 91d0 4bbe
00000280: 02de 17bf bcfc 9bbe c8a6 f8be 8918 e3bd
00000290: b97c 89bc 1162 d2bd 1af7 7f3e 904d 05bd
000002a0: 7103 b23e 9eb5 243e d6ca 5d3d dc83 f63e
000002b0: 3ba7 223e d1c3 773e 6982 1c3e e880 25be
000002c0: 9a33 32be c16c 1fbf 82e1 38bd a055 dcbe
000002d0: c750 3c3d cb0b 473f a38d 3a3f f175 58be
000002e0: c374 93bd 5e58 aabe 77d3 a6bd 0c15 3abe
000002f0: 7157 70bd 4a1e 25bc da16 77bd 0d53 17be
00000300: 34cb 833b fec4 c4bb 53aa abbd 277d 90bd
00000310: 918a 8cbd 2645 a4bc b313 413c 62a1 a43b
00000320: 8b10 45bb 8ced 20bd 0500 1c3c 2037 833d
00000330: baa7 5c3d 0b1b 293d 79a5 cabd 6853 a03e
00000340: d775 e2bd 9d47 15bf bc8a 373e 5c9f 82be
00000350: f89b bebd 2b0c 203e 463e efbd 48b5 5c3e
00000360: e5fe 9dbe f4a7 45bd 06c6 003f d795 583d
00000370: d2c9 2e3e 0f51 fcbd 876e 7c3e b3d3 2fbe
00000380: 7e2a 6f3d d1c4 f4be 5561 aebe d1f8 c43e
00000390: 6828 94be ad8c b23e d39c c03e f856 52bd
000003a0: 7813 323e 7e30 45be bb81 37bf 1a29 03bf
000003b0: 8577 713d 2dd0 7abe 392b 53be 517b 613e
000003c0: 63ee ba3d f4d0 cabe 85ba 113e a228 a2be
000003d0: c293 6dbe 9a38 9d3d 5a4e d4be 4208 243e
000003e0: b2b0 cf3e 8746 51be 668b b03d e162 81be
000003f0: d1f9 693e cde8 bfbd f093 fcbe cb00 0c3f

bias f4 [10]
-0.19388065 0.549619 -0.1110341 -0.07429691 0.5215241 -0.11439701 0.3695627 0.48262447
0.3744659 0.19721778
00000000: a688 46be d5b3 0c3f d965 e3bd fa28 98bd
00000010: 9a82 053f fb48 eabd 5237 bd3e 8e1a f73e
00000020: ffb9 bf3e 75f3 493e

weight f4 [10, 10, 3, 3]
-0.16836996 0.29447526 0.37401026 -0.14866471 -0.16092849 -0.5431369 -0.28394717 0.09093431
0.36807755 0.46750963 -0.18899286 -0.89663017 0.49789533 -0.26147127 -0.79872084 0.45923546
-0.48736566 -0.11528786 0.31590334 -0.08954845 0.023645017 -0.74144405 0.096795626 0.17528938
-0.50988925 0.3264234 -0.1621827 -0.7638654 0.5753751 0.25462547 0.055784557 0.83890826
-0.551637 -0.055827413 -0.2662927 -0.11229771 -0.89950836 -0.43718642 0.06933016 0.04671834
0.086141124 0.26918164 0.34328333 -0.3129245 0.112941526 0.008381388 -0.056617763 0.058189042
0.014815278 0.068702005 0.06303715 -0.023864003 0.06484502 0.025027107 -1.2544488 0.14971267
0.1368344 -0.5033463 -0.010557231 0.021185124 0.114158496 0.43610308 0.05844037 0.09477586
-0.09231597 -0.48662728 0.030105758 -0.40523505 -0.12344118 -0.08865306 -0.14743346 -0.17477669
0.37817597 -0.29560396 -0.41140452 -0.30401728 0.123259954 0.2836027 -0.10970423 0.16827258
-0.07664425 -0.7986942 -0.93990505 -0.50000656 -0.47330526 0.25928894 -0.25241512 -0.20001948
0.12400749 -0.12605397 0.217698 0.3753574 -0.44141778 -0.07833459 -0.39068556 -0.2853409
-0.05094731 -0.33087233 -0.044521954 -0.2131037 0.07858079 0.48656848 0.28397027 -0.26064807
0.11822033 -0.5315542 -0.34405828 0.04023768 -0.01651013 0.13328888 -0.035347458 -0.265558
-0.4839064 -0.21522577 -0.54029286 -0.12883213 -0.23094201 0.3649833 0.17169987 -0.54289514
-0.17102548 -0.4138171 -0.52597314 -0.8727707 -0.497826 -0.024453286 0.27148402 0.29893002
0.36116564 0.18155703 -0.35129654 -0.566783 -0.77208304 -0.6514543 -0.22129452 0.074709736
0.029022181 -0.0034223043 -0.062193364 0.008717385 -0.049184274 -0.053183917 0.055927526 -0.08804957
0.29796627 0.12171579 -0.055427026 0.094782546 -0.15915571 -0.20608208 -0.08487 -0.17669506
-0.02996966 0.027361602 -0.04305358 0.097613536 0.36776182 -0.016672032 0.12176389 -0.13418522
0.02082813 0.23726839 -0.69101477 -0.78362745 -0.5367819 -0.32260865 -0.0100185005 0.3434664
0.08083162 -0.016360432 0.09975493 -0.1423681 -0.27290568 0.26293254 -0.050353948 0.006885539
0.27378914 0.2994116 -0.22721694 0.17565618 0.07238596 0.2971829 -0.36355516 -0.035225704
0.16749206 -0.33940685 0.073530525 -0.03833488 -0.2878929 -0.43995297 -0.49669287 0.36904228
-0.20436126 -0.462621 0.04185663 -0.24358481 -0.17470343 -0.33577445 -0.08662045 -0.0012003379
-0.16232081 -0.03585244 0.3957278 -0.6229638 0.07455538 -0.16303712 -0.09935866 0.20414914
-0.13570194 -0.45979157 0.16823433 0.41207474 -0.9918658 -0.17050546 -0.21025886 -0.51988643
0.0070681414 0.19013354 0.048018847 0.041658018 0.15350163 0.38958982 -0.06873046 -0.030841963
-0.1759283 0.013963364 -0.095897146 0.036716994 0.0675113 -0.09221065 -0.05443686 -0.011282889
0.059326753 0.07133995 0.28874156 -0.25157425 -0.42550483 0.33203116 0.040322565 -0.3228616
0.13289618 0.39971006 -0.43013912 -0.32028157 -0.7459206 0.31310308 -0.1037172 -0.5516797
0.065379076 0.12990461 -0.47815296 0.2054808 0.17956184 0.06182222 -0.7722718 -0.16821681
00000000: 2d69 2cbe 76c5 963e 467e bf3e 903b 18be
00000010: 70ca 24be 050b 0bbf 8661 91be c43b ba3d
00000020: a974 bc3e 6c5d ef3e 5887 41be 8e89 65bf
00000030: 23ec fe3e 90df 85be f878 4cbf e920 eb3e
00000040: fe87 f9be 0b1c ecbd 15be a13e 2e65 b7bd
00000050: 32b3 c13c 47cf 3dbf c93c c63d 0f7f 333e
00000060: 1a88 02bf f820 a73e 3913 26be af8c 43bf
00000070: c84b 133f 455e 823e 597e 643d b1c2 563f
00000080: 1538 0dbf 49ab 64bd 8457 88be 57fc e5bd
00000090: 2e46 66bf e6d6 dfbe f9fc 8d3d bb5b 3f3d
000000a0: c26a b03d 2dd2 893e d5c2 af3e a437 a0be
000000b0: e34d e73d 1752 093c 07e8 67bd a257 6e3d
000000c0: c8bb 723c a3b3 8c3d 9f19 813d 717e c3bc
000000d0: 77cd 843d a605 cd3c c791 a0bf 474e 193e
000000e0: 511e 0c3e 4edb 00bf 3cf8 2cbc 6d8c ad3c
000000f0: eecb e93d e748 df3e 2b5f 6f3d d919 c23d
00000100: 2810 bdbd 3627 f9be 5aa0 f63c f87a cfbe
00000110: bbce fcbd bc8f b5bd ccf8 16be a9f8 32be
00000120: 48a0 c13e 6759 97be 9da3 d2be 27a8 9bbe
00000130: b76f fc3d 6034 913e 9dac e0bd a64f 2c3e
00000140: a9f7 9cbd 3977 4cbf 9e9d 70bf 6e00 00bf
00000150: 1155 f2be 85c1 843e 8e3c 81be e8d1 4cbe
00000160: a4f7 fd3d 4b14 01be 39ec 5e3e d82e c03e
00000170: 8301 e2be e36d a0bd f007 c8be 3418 92be
00000180: 20ae 50bd 1968 a9be a75c 36bd db37 5abe
00000190: f7ee a03d 811f f93e 8d64 913e aa73 85be
000001a0: 801d f23d f013 08bf 6828 b0be 44d0 243d
000001b0: 4140 87bc e17c 083e 7fc8 10bd 38f7 87be
000001c0: 94c2 f7be 2564 5cbe a250 0abf 92ec 03be
000001d0: 107c 6cbe 17df ba3e 17d2 2f3e 2dfb 0abf
000001e0: 4e21 2fbe d6df d3be 2da6 06bf e76d 5fbf
000001f0: 0de3 febe 4252 c8bc f4ff 8a3e 5b0d 993e
00000200: b4ea b83e 16ea 393e 24dd b3be b118 11bf
00000210: 3ca7 45bf b6c5 26bf 089b 62be 6b01 993d
00000220: edbf ed3c bd48 60bb 78be 7ebd 5dd3 0e3c
00000230: 7375 49bd 61d7 59bd 4314 653d 5553 b4bd
00000240: 098f 983e 2146 f93d 7307 63bd 5a1d c23d
00000250: b7f9 22be 2e07 53be 53d0 adbd 8def 34be
00000260: ef82 f5bc 7025 e03c f358 30bd 9be9 c73d
00000270: 474b bc3e c993 88bc 595f f93d da67 09be
00000280: c19f aa3c 7cf6 723e 58e6 30bf cf9b 48bf
00000290: 8a6a 09bf f62c a5be a324 24bc d4da af3e
000002a0: 0c8b a53d 5006 86bc 504c cc3d f1c8 11be
000002b0: 4bba 8bbe 189f 863e f13f 4ebd 16a0 e13b
000002c0: 172e 8c3e 7a4c 993e 8fab 68be 37df 333e
000002d0: 173f 943d 5b28 983e e723 babe d448 10bd
000002e0: 0a83 2b3e bcc6 adbe 2c97 963d 0905 1dbd
000002f0: b366 93be 8441 e1be 874e febe 1cf3 bc3e
00000300: 1444 51be a9dc ecbe dc71 2b3d 4c6e 79be
00000310: 75e5 32be a1ea abbe 1066 b1bd a854 9dba
00000320: 6d37 26be 02da 12bd d69c ca3e 8e7a 1fbf
00000330: 7eb0 983d 34f3 26be 8e7c cbbd 790c 513e
00000340: 73f5 0abe cd69 ebbe 9f45 2c3e 76fb d23e
00000350: ebea 7dbf fc98 2ebe 194e 57be 4717 05bf
00000360: de9b e73b 5eb2 423e 69af 443d 99a1 2a3d
00000370: 882f 1d3e 5178 c73e 8ec2 8cbd 49a8 fcbc
00000380: 8c26 34be 98c6 643c b965 c4bd 8f64 163d
00000390: 5d43 8a3d f0d8 bcbd 2ff9 5ebd dedb 38bc
000003a0: 9c00 733d ae1a 923d efd5 933e 57ce 80be
000003b0: c5db d9be fdff a93e 4629 253d 1e4e a5be
000003c0: f015 083e cca6 cc3e 323b dcbe f2fb a3be
000003d0: a7f4 3ebf 0c4f a03e af69 d4bd e13a 0dbf
000003e0: 77e5 853d b705 053e 77d0 f4be 8f69 523e
000003f0: 0fdf 373e 4c39 7d3d 9bb3 45bf 0741 2cbe

bias f4 [10]
0.67274886 0.59625244 0.63617754 0.60024464 0.18125731 0.68601745 0.11385493 0.43861118
0.31191412 0.88354915
00000000: 4539 2c3f 00a4 183f 88dc 223f a2a9 193f
00000010: 849b 393e d79e 2f3f c62c e93d a591 e03e
00000020: 35b3 9f3e 4730 623f

weight f4 [27, 490]
0.0029961765 -0.006863409 -0.060138732 -0.047392216 -0.064163074 -0.023966022 -0.06854683 -0.0072715925
-0.026460212 0.0040887496 0.0104120225 0.017437026 -0.06546312 -0.008357607 0.009926673 0.0009504542
-0.061438154 -0.011180179 -0.014955284 -0.012565341 -0.008599775 -0.03005601 -0.026246393 -0.016968755
-0.0041115447 -0.022477547 -0.049159814 -0.051218662 0.017032798 -0.029997807 -0.05593629 -0.0034952206
-0.05146354 -0.03885101 -0.017858103 -0.009899638 -0.050585687 -0.0019353725 0.0060726576 -0.06051141
-0.042894583 -0.050656907 -0.01539973 -0.042663477 0.014483018 -0.019148843 -0.058392644 0.0007055028
-0.017628564 0.023465497 -0.0045663733 -0.024626045 0.0025625739 -0.02486192 0.034349393 0.02724976
0.00670489 -0.013642198 -0.034082316 0.02174098 0.014807304 0.004807245 0.039129697 0.0054641683
0.011719128 -0.004339224 0.012862601 -0.033249386 -0.04124216 0.040658243 -0.029430667 -0.03921565
-0.0045403717 0.016283622 -0.020609545 -0.013675885 -0.024333447 -0.033867262 -0.014416947 -0.017851846
0.00689766 0.028519772 -0.04634755 0.012778978 -0.0067076804 0.013943822 0.033400647 0.02287521
0.014151411 0.041694645 0.036782134 0.012947673 -0.024509968 -0.015174812 -0.011058214 0.030106658
-0.045232724 -0.0016178001 -0.03937567 -0.06365176 -0.04709594 -0.0098156575 -0.008302635 -0.050777175
-0.06728342 0.002109842 -0.03640681 -0.029578691 -0.041170295 -0.022369342 -0.017994307 -0.024305994
-0.030232312 -0.016833125 0.0066277427 -0.049114775 -0.008562996 -0.06165072 0.021298867 -0.053082958
0.006384438 0.005392152 0.005194038 -0.054911546 -0.006109707 -0.010189037 -0.05532742 -0.039490446
0.02398157 0.026209328 -0.046840735 -0.008679278 -0.009587703 0.014264024 0.004365221 0.01069275
-0.0402787 -0.051910833 -0.014528495 0.008774536 -0.029282875 -0.0037451056 -0.032019205 -0.050844993
-0.046378966 -0.03930797 0.016686942 -0.08334479 -0.095935605 -0.11459874 -0.08054035 -0.12949604
-0.09164269 -0.050003346 -0.039161313 -0.114083305 -0.06487169 -0.13373591 -0.06293698 -0.11237732
-0.12997587 -0.10304059 -0.059648883 -0.066730894 -0.110325165 -0.073379345 -0.05074288 -0.04974452
-0.05447215 -0.06894939 -0.078130536 -0.13628714 -0.12029519 -0.12200964 -0.093008116 -0.11136446
-0.11477715 -0.07100189 -0.12071072 -0.08085326 -0.06301295 -0.10458986 -0.1239628 -0.09130973
-0.06101172 -0.06654363 -0.09805235 -0.061090365 -0.05606952 -0.08882408 -0.05786806 -0.079834566
-0.075980574 -0.08494531 -0.108656496 -0.10444703 0.036111407 0.009762553 0.034501377 0.02634238
0.012229716 0.019689575 0.0040945974 -0.049292356 0.016378965 0.020016037 -0.006794319 0.015161262
-0.014253644 -0.0042943577 -0.0517846 0.0057187667 -0.024587717 0.027591806 0.0045765527 0.0264525
-0.04483927 -0.026607988 -0.047390915 0.01945143 -0.015139486 -0.042252604 -0.041757245 0.010025767
0.024950212 -0.02100866 0.03816292 0.020652225 -0.0050768415 -0.051506747 -0.022521686 -0.027059106
-0.0132089425 0.021230083 -0.019912262 -0.042927906 -0.020235956 0.03392404 -0.009930283 0.026828296
0.015095654 -0.020077128 0.024711922 0.009729207 -0.006385329 -0.014001574 0.03045915 -0.017490411
-0.017005978 0.018223533 0.030178342 0.0031474952 -0.016456725 -0.013567208 0.0026590317 0.04194282
00000000: 805b 443b 73e6 e0bb 0854 76bd 571e 42bd
00000010: ee67 83bd 6454 c4bc 4862 8cbd 8a46 eebb
00000020: 16c3 d8bc ebfa 853b 3097 2a3c 18d8 8e3c
00000030: 8711 86bd 58ee 08bc 7ca3 223c e727 793a
00000040: 93a6 7bbd 122d 37bc 0207 75bc dcde 4dbc
00000050: 12e6 0cbc 0538 f6bc ad02 d7bc 0f02 8bbc
00000060: 23ba 86bb d522 b8bc cd5b 49bd a9ca 51bd
00000070: 5e88 8b3c f6bd f5bc 741d 65bd 1210 65bb
00000080: 6fcb 52bd 3d22 1fbd 284b 92bc 1732 22bc
00000090: f032 4fbd 53ac fdba 25fd c63b d0da 77bd
000000a0: 3bb2 2fbd 9e7d 4fbd 264f 7cbc e6bf 2ebd
000000b0: 2e4a 6d3c 09de 9cbc 202d 6fbd 7ef1 383a
000000c0: c769 90bc b73a c03c 84a1 95bb 8fbc c9bc
000000d0: dbf0 273b 3aab cbbc f3b1 0c3d e43a df3c
000000e0: b2b4 db3b 8783 5fbc e699 0bbd 241a b23c
000000f0: 569a 723c 1886 9d3b 7646 203d c40c b33b
00000100: 9601 403c 0d30 8ebb a9bd 523c 8230 08bd
00000110: 8aed 28bd 4289 263d 9518 f1bc 97a0 20bd
00000120: 66c7 94bb 3b65 853c 59d5 a8bc d210 60bc
00000130: f056 c7bc 66b8 0abd 0f35 6cbc 093e 92bc
00000140: c405 e23b 4ca2 e93c eed6 3dbd eb5e 513c
00000150: 1acc dbbb a174 643c 1ecf 083d cb64 bb3c
00000160: 52db 673c 01c8 2a3d dda8 163d 7a22 543c
00000170: 21c9 c8bc c69f 78bc 832d 35bc 3da2 f63c
00000180: f345 39bd 5d0c d4ba 6248 21bd db5b 82bd
00000190: ace7 40bd dad1 20bc c607 08bc bafb 4fbd
000001a0: e4cb 89bd 4645 0a3b 4f1f 15bd 034f f2bc
000001b0: 2fa2 28bd e93f b7bc cc68 93bc 5d1d c7bc
000001c0: c1a9 f7bc 9fe5 89bc 892d d93b 932c 49bd
000001d0: cf4b 0cbc 7785 7cbd f67a ae3c 846d 59bd
000001e0: 8c34 d13b a6b0 b03b c032 aa3b eeea 60bd
000001f0: f033 c8bb ebef 26bc 019f 62bd bcc0 21bd
00000200: ff74 c43c f2b4 d63c 12dc 3fbd 8833 0ebc
00000210: be15 1dbc a7b3 693c 210a 8f3b a530 2f3c
00000220: 47fb 24bd 74a0 54bd ed08 6ebc 12c3 0f3c
00000230: a4e2 efbc 7270 75bb 9226 03bd d742 50bd
00000240: dff7 3dbd 6501 21bd 0eb3 883c acb0 aabd
00000250: e379 c4bd bfb2 eabd 57f2 a4bd 9c9a 04be
00000260: 2aaf bbbd 4fd0 4cbd 9d67 20bd 82a4 e9bd
00000270: 73db 84bd 11f2 08be 1ae5 80bd 1526 e6bd
00000280: 6518 05be f206 d3bd 6352 74bd 35aa 88bd
00000290: 29f2 e1bd e947 96bd c4d7 4fbd e9c0 4bbd
000002a0: 301e 5fbd 5635 8dbd e702 a0bd db8e 0bbe
000002b0: 535d f6bd 31e0 f9bd 0a7b bebd 0d13 e4bd
000002c0: 4810 ebbd 7069 91bd 2f37 f7bd 6596 a5bd
000002d0: ef0c 81bd 3533 d6bd 35e0 fdbd 9900 bbbd
000002e0: 6de7 79bd 0748 88bd accf c8bd e439 7abd
000002f0: 27a9 65bd 66e9 b5bd 0f07 6dbd 4e80 a3bd
00000300: b49b 9bbd cff7 adbd 4c87 debd 53e8 d5bd
00000310: 8ee9 133d 1df3 1f3c 5151 0d3d facb d73c
00000320: 265f 483c 084c a13c f92b 863b c8e6 49bd
00000330: 2e2d 863c acf8 a33c e1a2 debb f166 783c
00000340: 1e88 69bc afb7 8cbb 171c 54bd 7e64 bb3b
00000350: 2e6c c9bc 3608 e23c e8f6 953b eab2 d83c
00000360: 62a9 37bd fff8 d9bc fa1c 42bd 9b58 9f3c
00000370: 9b0b 78bc 1111 2dbd a509 2bbd 1d43 243c
00000380: 6364 cc3c 5a1a acbc b950 1c3d db2e a93c
00000390: a25b a6bb bdf8 52bd 667f b8bc 0fab ddbc
000003a0: 526a 58bc b6ea ad3c 0a1f a3bc 2cd5 2fbd
000003b0: e0c5 a5bc eff3 0a3d a0b2 22bc 04c7 db3c
000003c0: c353 773c ca78 a4bc a870 ca3c 4067 1f3c
000003d0: 063c d1bb dc66 65bc 7885 f93c 0d48 8fbc
000003e0: 1f50 8bbc 8549 953c 9238 f73c 3546 4e3b
000003f0: 41d0 86bc ff48 5ebc 2643 2e3b 3ccc 2b3d

bias f4 [27]
-0.4379433 -0.25323656 -0.3585494 0.2500866 -0.09437407 -0.11587759 -0.299526 -0.17269753
-0.01661371 1.1066315 0.3755431 -0.8439208 1.0560057 -0.41825667 0.36118925 0.1257564
0.18481345 -0.449148 0.2712546 -0.02587247 0.38480744 -0.15341802 0.5643242 -0.21868326
-0.692632 0.19788572 -0.13677552
00000000: 1b3a e0be 39a8 81be c993 b7be 5a0b 803e
00000010: 3147 c1bd 3b51 edbd 795b 99be 9fd7 30be
00000020: 7a19 88bc 1aa6 8d3f 2f47 c03e 320b 58bf
00000030: 322b 873f bd25 d6be cced b83e 49c6 003e
00000040: bd3f 3d3e baf6 e5be e2e1 8a3e 81f2 d3bc
00000050: 7b05 c53e 9d19 1dbe 8d77 103f 81ee 5fbe
00000060: 5550 31bf 8ea2 4a3e e20e 0cbe
